…
.parameters())\ntrainable_params = sum(p.numel() for p in model.parameters() if p.requires_grad)\nprint(f\"\\nTotal Parameters: {total_params:,}\")\nprint(f\"Trainable Parameters: {trainable_params:,}\\n\")","metadata":{"trusted":true,"execution":{"iopub.status.busy":"2026-03-27T21:19:16.186678Z","iopub.execute_input":"2026-03-27T21:19:16.187076Z","iopub.status.idle":"2026-03-27T21:19:16.257157Z","shell.execute_reply.started":"2026-03-27T21:19:16.187035Z","shell.execute_reply":"2026-03-27T21:19:16.256280Z"}},"outputs":[{"name":"stdout","text":"=== Model Architecture ===\nImprovedCNN(\n  (conv1): Conv2d(3, 32, kernel_size=(3, 3), stride=(1, 1), padding=(1, 1))\n  (bn1): BatchNorm2d(32, eps=1e-05, momentum=0.1, affine=True, track_running_stats=True)\n  (relu1): ReLU(inplace=True)\n  (conv2): Conv2d(32, 32, kernel_size=(3, 3), stride=(1, 1), padding=(1, 1))\n  (bn2): BatchNorm2d(32, eps=1e-05, momentum=0.1, affine=True, track_running_stats=True)\n  (relu2): ReLU(inplace=True)\n  (pool1): MaxPool2d(kernel_size=2, stride=2, padding=0, dilation=1, ceil_mode=False)\n  (drop1): Dropout(p=0.3, inplace=False)\n  (conv3): Conv2d(32, 64, kernel_size=(3, 3), stride=(1, 1), padding=(1, 1))\n  (bn3): BatchNorm2d(64, eps=1e-05, momentum=0.1, affine=True, track_running_stats=True)\n  (relu3): ReLU(inplace=True)\n  (conv4): Conv2d(64, 64, kernel_size=(3, 3), stride=(1, 1), padding=(1, 1))\n  (bn4): BatchNorm2d(64, eps=1e-05, momentum=0.1, affine=True, track_running_stats=True)\n  (relu4): ReLU(inplace=True)\n  (pool2): MaxPool2d(kernel_size=2, stride=2, padding=0, dilation=1, ceil_mode=False)\n  (drop2): Dropout(p=0.3, inplace=False)\n  (conv5): Conv2d(64, 128, kernel_size=(3, 3), stride=(1, 1), padding=(1, 1))\n  (bn5): BatchNorm2d(128, eps=1e-05, momentum=0.1, affine=True, track_running_stats=True)\n  (relu5): ReLU(inplace=True)\n  (conv6): Conv2d(128, 128, kernel_size=(3, 3), stride=(1, 1), padding=(1, 1))\n  (bn6): BatchNorm2d(128, eps=1e-05, momentum=0.1, affine=True, track_running_stats=True)\n  (relu6): ReLU(inplace=True)\n  (pool3): MaxPool2d(kernel_size=2, stride=2, padding=0, dilation=1, ceil_mode=False)\n  (drop3): Dropout(p=0.3, inplace=False)\n  (fc1): Linear(in_features=2048, out_features=256, bias=True)\n  (fc_bn): BatchNorm1d(256, eps=1e-05, momentum=0.1, affine=True, track_running_stats=True)\n  (fc_relu): ReLU(inplace=True)\n  (fc_drop): Dropout(p=0.3, inplace=False)\n  (fc2): Linear(in_features=256, out_features=10, bias=True)\n)\n\nTotal Parameters: 815,530\nTrainable Parameters: 815,530\n\n","output_type":"stream"}],"execution_count":31},{"cell_type":"code","source":"TRAIN_CSV = '/kaggle/input/competitions/shift-guard-10-robust-image-classification-challenge/train_labels.csv'\nTRAIN_DIR = '/kaggle/input/competitions/shift-guard-10-robust-image-classification-challenge/train
…
